…
    "validation_dataloader = DataLoader(\n",
    "            val_dataset, # The validation samples.\n",
    "            sampler = SequentialSampler(val_dataset), # Pull out batches sequentially.\n",
    "            batch_size = batch_size # Evaluate with this batch size.\n",
    "        )"
   ]
  },
  {
   "cell_type": "code",
   "execution_count": 14,
   "metadata": {},
   "outputs": [
    {
     "data": {
      "text/plain": [
       "LongformerForSequenceClassification(\n",
       "  (longformer): LongformerModel(\n",
       "    (embeddings): RobertaEmbeddings(\n",
       "      (word_embeddings): Embedding(50265, 768, padding_idx=1)\n",
       "      (position_embeddings): Embedding(4098, 768, padding_idx=1)\n",
       "      (token_type_embeddings): Embedding(1, 768)\n",
       "      (LayerNorm): LayerNorm((768,), eps=1e-05, elementwise_affine=True)\n",
       "      (dropout): Dropout(p=0.1, inplace=False)\n",
       "    )\n",
       "    (encoder): LongformerEncoder(\n",
       "      (layer): ModuleList(\n",
       "        (0): LongformerLayer(\n",
       "          (attention): LongformerAttention(\n",
       "            (self): LongformerSelfAttention(\n",
       "              (query): Linear(in_features=768, out_features=768, bias=True)\n",
       "              (key): Linear(in_features=768, out_features=768, bias=True)\n",
       "              (value): Linear(in_features=768, out_features=768, bias=True)\n",
       "              (query_global): Linear(in_features=768, out_features=768, bias=True)\n",
       "              (key_global): Linear(in_features=768, out_features=768, bias=True)\n",
       "              (value_global): Linear(in_features=768, out_features=768, bias=True)\n",
       "            )\n",
       "            (output): BertSelfOutput(\n",
       "              (dense): Linear(in_features=768, out_features=768, bias=True)\n",
       "              (LayerNorm): LayerNorm((768,), eps=1e-05, elementwise_affine=True)\n",
       "              (dropout): Dropout(p=0.1, inplace=False)\n",
       "            )\n",
       "          )\n",
       "          (intermediate): BertIntermediate(\n",
       "            (dense): Linear(in_features=768, out_features=3072, bias=True)\n",
       "          )\n",
       "          (output): BertOutput(\n",
       "            (dense): Linear(in_features=3072, out_features=768, bias=True)\n",
       "            (LayerNorm): LayerNorm((768,), eps=1e-05, elementwise_affine=True)\n",
       "            (dropout): Dropout(p=0.1, inplace=False)\n",
       "          )\n",
       "        )\n",
       "        (1): LongformerLayer(\n",
       "          (attention): LongformerAttention(\n",
       "            (self): LongformerSelfAttention(\n",
       "              (query): Linear(in_features=768, out_features=768, bias=True)\n",
       "              (key): Linear(in_features=768, out_features=768, bias=True)\n",
       "              (value): Linear(in_features=768, out_features=768, bias=True)\n",
       "              (query_global): Linear(in_features=768, out_features=768, bias=True)\n",
       "              (key_global): Linear(in_features=768, out_features=768, bias=True)\n",
       "              (value_global): Linear(in_features=768, out_features=768, bias=True)\n",
       "            )\n",
       "            (output): BertSelfOutput(\n",
       "              (dense): Linear(in_features=768, out_features=768, bias=True)\n",
       "              (LayerNorm): LayerNorm((768,), eps=1e-05, elementwise_affine=True)\n",
       "              (dropout): Dropout(p=0.1, inplace=False)\n",
       "            )\n",
       "          )\n",
       "          (intermediate): BertIntermediate(\n",
       "            (dense): Linear(in_features=768, out_features=3072, bias=True)\n",
       "          )\n",
       "          (output): BertOutput(\n",
       "            (dense): Linear(in_features=3072, out_features=768, bias=True)\n",
       "            (LayerNorm): LayerNorm((768,), eps=1e-05, elementwise_affine=True)\n",
       "            (dropout): Dropout(p=0.1, inplace=False)\n",
       "          )\n",
       "        )\n",
       "        (2): LongformerLayer(\n",
       "          (attention): LongformerAttention(\n",
       "            (self): LongformerSelfAttention(\n",
       "              (query): Linear(in_features=768, out_features=768, bias=True)\n",
       "              (key): Linear(in_features=768, out_features=768, bias=True)\n",
       "              (value): Linear(in_features=768, out_features=768, bias=True)\n",
       "              (query_global): Linear(in_features=768, out_features=768, bias=True)\n",
       "              (key_global): Linear(in_features=768, out_features=768, bias=True)\n",
       "              (value_global): Linear(in_features=768, out_features=768, bias=True)\n",
       "            )\n",
       "            (output): BertSelfOutput(\n",
       "              (dense): Linear(in_features=768, out_features=768, bias=True)\n",
       "              (LayerNorm): LayerNorm((768,), eps=1e-05, elementwise_affine=True)\n",
       "              (dropout): Dropout(p=0.1, inplace=False)\n",
       "            )\n",
       "          )\n",
       "          (intermediate): BertIntermediate(\n",
       "            (dense): Linear(in_features=768, out_features=3072, bias=True)\n",
       "          )\n",
       "          (output): BertOutput(\n",
       "            (dense): Linear(in_features=3072, out_features=768, bias=True)\n",
       "            (LayerNorm): LayerNorm((768,), eps=1e-05, elementwise_affine=True)\n",
       "            (dropout): Dropout(p=0.1, inplace=False)\n",
       "          )\n",
       "        )\n",
       "        (3): LongformerLayer(\n",
       "          (attention): LongformerAttention(\n",
       "            (self): LongformerSelfAttention(\n",
       "              (query): Linear(in_features=768, out_features=768, bias=True)\n",
       "              (key): Linear(in_features=768, out_features=768, bias=True)\n",
       "              (value): Linear(in_features=768, out_features=768, bias=True)\n",
       "              (query_global): Linear(in_features=768, out_features=768, bias=True)\n",
       "              (key_global): Linear(in_features=768, out_features=768, bias=True)\n",
       "              (value_global): Linear(in_features=768, out_features=768, bias=True)\n",
       "            )\n",
       "            (output): BertSelfOutput(\n",
       "              (dense): Linear(in_features=768, out_features=768, bias=True)\n",
       "              (LayerNorm): LayerNorm((768,), eps=1e-05, elementwise_affine=True)\n",
       "              (dropout): Dropout(p=0.1, inplace=False)\n",
       "            )\n",
       "          )\n",
       "          (intermediate): BertIntermediate(\n",
       "            (dense): Linear(in_features=768, out_features=3072, bias=True)\n",
       "          )\n",
       "          (output): BertOutput(\n",
       "            (dense): Linear(in_features=3072, out_features=768, bias=True)\n",
       "            (LayerNorm): LayerNorm((768,), eps=1e-05, elementwise_affine=True)\n",
       "            (dropout): Dropout(p=0.1, inplace=False)\n",
       "          )\n",
       "        )\n",
       "        (4): LongformerLayer(\n",
       "          (attention): LongformerAttention(\n",
       "            (self): LongformerSelfAttention(\n",
       "              (query): Linear(in_features=768, out_features=768, bias=True)\n",
       "              (key): Linear(in_features=768, out_features=768, bias=True)\n",
       "              (value): Linear(in_features=768, out_features=768, bias=True)\n",
       "              (query_global): Linear(in_features=768, out_features=768, bias=True)\n",
       "              (key_global): Linear(in_features=768, out_features=768, bias=True)\n",
       "              (value_global): Linear(in_features=768, out_features=768, bias=True)\n",
       "            )\n",
       "            (output): BertSelfOutput(\n",
       "              (dense): Linear(in_features=768, out_features=768, bias=True)\n",
       "              (LayerNorm): LayerNorm((768,), eps=1e-05, elementwise_affine=True)\n",
       "              (dropout): Dropout(p=0.1, inplace=False)\n",
       "            )\n",
       "          )\n",
       "          (intermediate): BertIntermediate(\n",
       "            (dense): Linear(in_features=768, out_features=3072, bias=True)\n",
       "          )\n",
       "          (output): BertOutput(\n",
       "            (dense): Linear(in_features=3072, out_features=768, bias=True)\n",
       "            (LayerNorm): LayerNorm((768,), eps=1e-05, elementwise_affine=True)\n",
       "            (dropout): Dropout(p=0.1, inplace=False)\n",
       "          )\n",
       "        )\n",
       "        (5): LongformerLayer(\n",
       "          (attention): LongformerAttention(\n",
       "            (self): LongformerSelfAttention(\n",
       "              (query): Linear(in_features=768, out_features=768, bias=True)\n",
       "              (key): Linear(in_features=768, out_features=768, bias=True)\n",
       "              (value): Linear(in_features=768, out_features=768, bias=True)\n",
       "              (query_global): Linear(in_features=768, out_features=768, bias=True)\n",
       "              (key_global): Linear(in_features=768, out_features=768, bias=True)\n",
       "              (value_global): Linear(in_features=768, out_features=768, bias=True)\n",
       "            )\n",
       "            (output): BertSelfOutput(\n",
       "              (dense): Linear(in_features=768, out_features=768, bias=True)\n",
       "              (LayerNorm): LayerNorm((768,), eps=1e-05, elementwise_affine=True)\n",
       "              (dropout): Dropout(p=0.1, inplace=False)\n",
       "            )\n",
       "          )\n",
       "          (intermediate): BertIntermediate(\n",
       "            (dense): Linear(in_features=768, out_features=3072, bias=True)\n",
       "          )\n",
       "          (output): BertOutput(\n",
       "            (dense): Linear(in_features=3072, out_features=768, bias=True)\n",
       "            (LayerNorm): LayerNorm((768,), eps=1e-05, elementwise_affine=True)\n",
       "            (dropout): Dropout(p=0.1, inplace=False)\n",
       "          )\n",
       "        )\n",
       "        (6): LongformerLayer(\n",
       "          (attention): LongformerAttention(\n",
       "            (self): LongformerSelfAttention(\n",
       "              (query): Linear(in_features=768, out_features=768, bias=True)\n",
       "              (key): Linear(in_features=768, out_features=768, bias=True)\n",
       "              (value): Linear(in_features=768, out_features=768, bias=True)\n",
       "              (query_global): Linear(in_features=768, out_features=768, bias=True)\n",
       "              (key_global): Linear(in_features=768, out_features=768, bias=True)\n",
       "              (value_global): Linear(in_features=768, out_features=768, bias=True)\n",
       "            )\n",
       "            (output): BertSelfOutput(\n",
       "              (dense): Linear(in_features=768, out_features=768, bias=True)\n",
       "              (LayerNorm): LayerNorm((768,), eps=1e-05, elementwise_affine=True)\n",
       "              (dropout): Dropout(p=0.1, inplace=False)\n",
       "            )\n",
       "          )\n",
       "          (intermediate): BertIntermediate(\n",
       "            (dense): Linear(in_features=768, out_features=3072, bias=True)\n",
       "          )\n",
       "          (output): BertOutput(\n",
       "            (dense): Linear(in_features=3072, out_features=768, bias=True)\n",
       "            (LayerNorm): LayerNorm((768,), eps=1e-05, elementwise_affine=True)\n",
       "            (dropout): Dropout(p=0.1, inplace=False)\n",
       "          )\n",
       "        )\n",
       "        (7): LongformerLayer(\n",
       "          (attention): LongformerAttention(\n",
       "            (self): LongformerSelfAttention(\n",
       "              (query): Linear(in_features=768, out_features=768, bias=True)\n",
       "              (key): Linear(in_features=768, out_features=768, bias=True)\n",
       "              (value): Linear(in_features=768, out_features=768, bias=True)\n",
       "              (query_global): Linear(in_features=768, out_features=768, bias=True)\n",
       "              (key_global): Linear(in_features=768, out_features=768, bias=True)\n",
       "              (value_global): Linear(in_features=768, out_features=768, bias=True)\n",
       "            )\n",
       "            (output): BertSelfOutput(\n",
       "              (dense): Linear(in_features=768, out_features=768, bias=True)\n",
       "              (LayerNorm): LayerNorm((768,), eps=1e-05, elementwise_affine=True)\n",
       "              (dropout): Dropout(p=0.1, inplace=False)\n",
       "            )\n",
       "          )\n",
       "          (intermediate): BertIntermediate(\n",
       "            (dense): Linear(in_features=768, out_features=3072, bias=True)\n",
       "          )\n",
       "          (output): BertOutput(\n",
       "            (dense): Linear(in_features=3072, out_features=768, bias=True)\n",
       "            (LayerNorm): LayerNorm((768,), eps=1e-05, elementwise_affine=True)\n",
       "            (dropout): Dropout(p=0.1, inplace=False)\n",
       "          )\n",
       "        )\n",
       "        (8): LongformerLayer(\n",
       "          (attention): LongformerAttention(\n",
       "            (self): LongformerSelfAttention(\n",
       "              (query): Linear(in_features=768, out_features=768, bias=True)\n",
       "              (key): Linear(in_features=768, out_features=768, bias=True)\n",
       "              (value): Linear(in_features=768, out_features=768, bias=True)\n",
       "              (query_global): Linear(in_features=768, out_features=768, bias=True)\n",
       "              (key_global): Linear(in_features=768, out_features=768, bias=True)\n",
       "              (value_global): Linear(in_features=768, out_features=768, bias=True)\n",
       "            )\n",
       "            (output): BertSelfOutput(\n",
       "              (dense): Linear(in_features=768, out_features=768, bias=True)\n",
       "              (LayerNorm): LayerNorm((768,), eps=1e-05, elementwise_affine=True)\n",
       "              (dropout): Dropout(p=0.1, inplace=False)\n",
       "            )\n",
       "          )\n",
       "          (intermediate): BertIntermediate(\n",
       "            (dense): Linear(in_features=768, out_features=3072, bias=True)\n",
       "          )\n",
       "          (output): BertOutput(\n",
       "            (dense): Linear(in_features=3072, out_features=768, bias=True)\n",
       "            (LayerNorm): LayerNorm((768,), eps=1e-05, elementwise_affine=True)\n",
       "            (dropout): Dropout(p=0.1, inplace=False)\n",
       "          )\n",
       "        )\n",
       "        (9): LongformerLayer(\n",
       "          (attention): LongformerAttention(\n",
       "            (self): LongformerSelfAttention(\n",
       "              (query): Linear(in_features=768, out_features=768, bias=True)\n",
       "              (key): Linear(in_features=768, out_features=768, bias=True)\n",
       "              (value): Linear(in_features=768, out_features=768, bias=True)\n",
       "              (query_global): Linear(in_features=768, out_features=768, bias=True)\n",
       "              (key_global): Linear(in_features=768, out_features=768, bias=True)\n",
       "              (value_global): Linear(in_features=768, out_features=768, bias=True)\n",
       "            )\n",
       "            (output): BertSelfOutput(\n",
       "              (dense): Linear(in_features=768, out_features=768, bias=True)\n",
       "              (LayerNorm): LayerNorm((768,), eps=1e-05, elementwise_affine=True)\n",
       "              (dropout): Dropout(p=0.1, inplace=False)\n",
       "            )\n",
       "          )\n",
       "          (intermediate): BertIntermediate(\n",
       "            (dense): Linear(in_features=768, out_features=3072, bias=True)\n",
       "          )\n",
       "          (output): BertOutput(\n",
       "            (dense): Linear(in_features=3072, out_features=768, bias=True)\n",
       "            (LayerNorm): LayerNorm((768,), eps=1e-05, elementwise_affine=True)\n",
       "            (dropout): Dropout(p=0.1, inplace=False)\n",
       "          )\n",
       "        )\n",
       "        (10): LongformerLayer(\n",
       "          (attention): LongformerAttention(\n",
       "            (self): LongformerSelfAttention(\n",
       "              (query): Linear(in_features=768, out_features=768, bias=True)\n",
       "              (key): Linear(in_features=768, out_features=768, bias=True)\n",
       "              (value): Linear(in_features=768, out_features=768, bias=True)\n",
       "              (query_global): Linear(in_features=768, out_features=768, bias=True)\n",
       "              (key_global): Linear(in_features=768, out_features=768, bias=True)\n",
       "              (value_global): Linear(in_features=768, out_features=768, bias=True)\n",
       "            )\n",
       "            (output): BertSelfOutput(\n",
       "              (dense): Linear(in_features=768, out_features=768, bias=True)\n",
       "              (LayerNorm): LayerNorm((768,), eps=1e-05, elementwise_affine=True)\n",
       "              (dropout): Dropout(p=0.1, inplace=False)\n",
       "            )\n",
       "          )\n",
       "          (intermediate): BertIntermediate(\n",
       "            (dense): Linear(in_features=768, out_features=3072, bias=True)\n",
       "          )\n",
       "          (output): BertOutput(\n",
       "            (dense): Linear(in_features=3072, out_features=768, bias=True)\n",
       "            (LayerNorm): LayerNorm((768,), eps=1e-05, elementwise_affine=True)\n",
       "            (dropout): Dropout(p=0.1, inplace=False)\n",
       "          )\n",
       "        )\n",
       "        (11): LongformerLayer(\n",
       "          (attention): LongformerAttention(\n",
       "            (self): LongformerSelfAttention(\n",
       "              (query): Linear(in_features=768, out_features=768, bias=True)\n",
       "              (key): Linear(in_features=768, out_features=768, bias=True)\n",
       "              (value): Linear(in_features=768, out_features=768, bias=True)\n",
       "              (query_global): Linear(in_features=768, out_features=768, bias=True)\n",
       "              (key_global): Linear(in_features=768, out_features=768, bias=True)\n",
       "              (value_global): Linear(in_features=768, out_features=768, bias=True)\n",
       "            )\n",
       "            (output): BertSelfOutput(\n",
       "              (dense): Linear(in_features=768, out_features=768, bias=True)\n",
       "              (LayerNorm): LayerNorm((768,), eps=1e-05, elementwise_affine=True)\n",
       "              (dropout): Dropout(p=0.1, inplace=False)\n",
       "            )\n",
       "          )\n",
       "          (intermediate): BertIntermediate(\n",
       "            (dense): Linear(in_features=768, out_features=3072, bias=True)\n",
       "          )\n",
       "          (output): BertOutput(\n",
       "            (dense): Linear(in_features=3072, out_features=768, bias=True)\n",
       "            (LayerNorm): LayerNorm((768,), eps=1e-05, elementwise_affine=True)\n",
       "            (dropout): Dropout(p=0.1, inplace=False)\n",
       "          )\n",
       "        )\n",
       "      )\n",
       "    )\n",
       "    (pooler): BertPooler(\n",
       "      (dense): Linear(in_features=768, out_features=768, bias=True)\n",
       "      (activation): Tanh()\n",
       "    )\n",
       "  )\n",
       "  (classifier): LongformerClassificationHead(\n",
       "    (dense): Linear(in_features=768, out_features=768, bias=True)\n",
       "    (dropout): Dropout(p=0.1, inplace=False)\n",
       "    (out_proj): Linear(in_features=768, out_features=2, bias=True)\n",
       "  )\n",
       ")"
      ]
     },
     "execution_count": 14,
     "metadata": {},
     "output_type": "execute_result"
    }
   ],
   "source": [
    "# Tell pytorch to run this model on the GPU.\n",
    "model.cuda()"
   ]
  },
  {
   "cell_type": "code",
   "execution_count": 15,
   "metadata": {},
   "outputs": [],
   "source": [
    "# Note: AdamW is a class from the huggingface library (as opposed to pytorch) \n",
…
